entk_16shot.pt (torch, 3440 bytes, 1 tensors)

kernel f4 [16, 16]
0	0x4898a425	312609.16
1	0x484560a3	202114.55
2	0x483747f8	187679.88
3	0x481408d3	151587.3
4	0x48861efc	274679.88
5	0x4835bf2d	186108.7
6	0x484d90aa	210498.66
7	0x48434697	199962.36
8	0x48379653	187993.3
9	0x489552c3	305814.1
10	0x48a72d03	342376.1
11	0x48483bb0	205038.75
12	0x481710f1	154691.77
13	0x487fcf32	261948.78
14	0x486e1c14	243824.31
15	0x481d8828	161312.62
16	0x484560a3	202114.55
17	0x4880a024	263425.12
18	0x485ea3d3	227983.3
19	0x483324ce	183443.22
20	0x48575231	220488.77
21	0x482ed308	179020.12
22	0x4877a98e	253606.22
23	0x483b7f7c	191997.94
24	0x48240b40	167981.0
25	0x486dd7be	243550.97
26	0x4888c583	280108.1
27	0x483490de	184899.47
28	0x48163ab3	153834.8
29	0x4847a35c	204429.44
30	0x485711c8	220231.12
31	0x482ed34a	179021.16
32	0x483747f8	187679.88
33	0x485ea3d3	227983.3
34	0x4947f0aa	818954.6
35	0x48369aea	186987.66
36	0x48497299	206282.39
37	0x482b469c	175386.44
38	0x4930bced	723918.8
39	0x483c155e	192597.47
40	0x482dd064	177985.56
41	0x48702090	245890.25
42	0x48822880	266564.0
43	0x483088c2	180771.03
44	0x48177961	155109.52
45	0x484fa54e	212629.22
46	0x48529d1a	215668.4
47	0x48261405	170064.08
48	0x481408d3	151587.3
49	0x483324ce	183443.22
50	0x48369aea	186987.66
51	0x48777079	253377.89
52	0x480d071d	144412.45
53	0x481afb7f	158701.98
54	0x48260516	170004.34
55	0x482cd085	176962.08
56	0x4807f53e	139220.97
57	0x480af977	142309.86
58	0x481003dc	147471.44
59	0x4814560a	151896.16
60	0x4814fbcd	152559.2
61	0x480583f7	136719.86
62	0x4812016e	149509.72
63	0x482905ae	173078.72
64	0x48861efc	274679.88
65	0x48575231	220488.77
66	0x48497299	206282.39
67	0x480d071d	144412.45
68	0x48b43791	369084.53
69	0x48498d55	206389.33
70	0x486b5e3e	241016.97
71	0x48472880	203938.0
72	0x484d911c	210500.44
73	0x48be27bf	389437.97
74	0x48ea83ab	480285.34
75	0x486d44f9	242963.89
76	0x481b3d53	158965.3
77	0x48a93c69	346595.28
78	0x4895d580	306860.0
79	0x4820cb58	164653.38
80	0x4835bf2d	186108.7
81	0x482ed308	179020.12
82	0x482b469c	175386.44
83	0x481afb7f	158701.98
84	0x48498d55	206389.33
85	0x4891b88b	298436.34
86	0x48c2775e	398266.94
87	0x482bfdd5	176119.33
88	0x4825a17f	169605.98
89	0x4861607d	230785.95
90	0x4861b415	231120.33
91	0x482c2c70	176305.75
92	0x482856b2	172378.78
93	0x48415a08	197992.12
94	0x483cdf49	193405.14
95	0x481ecd0e	162612.22
96	0x484d90aa	210498.66
97	0x4877a98e	253606.22
98	0x4930bced	723918.8
99	0x48260516	170004.34
100	0x486b5e3e	241016.97
101	0x48c2775e	398266.94
102	0x49993039	1.2549191e+06
103	0x483c30fb	192707.92
104	0x48304a0b	180520.17
105	0x488b51d8	285326.75
106	0x4890dea1	296693.03
107	0x4839aeb6	190138.84
108	0x482c7709	176604.14
109	0x4853f80b	217056.17
110	0x486af29c	240586.44
111	0x482679c5	170471.08
112	0x48434697	199962.36
113	0x483b7f7c	191997.94
114	0x483c155e	192597.47
115	0x482cd085	176962.08
116	0x48472880	203938.0
117	0x482bfdd5	176119.33
118	0x483c30fb	192707.92
119	0x487232f2	248011.78
120	0x48237128	167364.62
121	0x4861db07	231276.11
122	0x487006c8	245787.12
123	0x482f23c9	179343.14
124	0x481510b1	152642.77
125	0x48397d8b	189942.17
126	0x48419aec	198251.69
127	0x481f9675	163417.83
128	0x48379653	187993.3
129	0x48240b40	167981.0
130	0x482dd064	177985.56
131	0x4807f53e	139220.97
132	0x484d911c	210500.44
133	0x4825a17f	169605.98
134	0x48304a0b	180520.17
135	0x48237128	167364.62
136	0x484b5600	208216.0
137	0x486cd582	242518.03
138	0x4871cc57	247601.36
139	0x482c70a8	176578.62
140	0x4812fe93	150522.3
141	0x484fd19e	212806.47
142	0x4846ebf0	203695.75
143	0x48273b73	171245.8
144	0x489552c3	305814.1
145	0x486dd7be	243550.97
146	0x48702090	245890.25
147	0x480af977	142309.86
148	0x48be27bf	389437.97
149	0x4861607d	230785.95
150	0x488b51d8	285326.75
151	0x4861db07	231276.11
152	0x486cd582	242518.03
153	0x48f1b19c	494988.88
154	0x49056896	546441.4
155	0x487d9114	259652.31
156	0x481720fe	154755.97
157	0x48b3eed8	368502.75
158	0x48a86c1a	344928.8
159	0x48307c23	180720.55
160	0x48a72d03	342376.1
161	0x4888c583	280108.1
162	0x48822880	266564.0
163	0x481003dc	147471.44
164	0x48ea83ab	480285.34
165	0x4861b415	231120.33
166	0x4890dea1	296693.03
167	0x487006c8	245787.12
168	0x4871cc57	247601.36
169	0x49056896	546441.4
170	0x49269306	682288.4
171	0x4890d723	296633.1
172	0x4817d356	155469.34
173	0x48dca793	451900.6
174	0x48c46fc5	402302.16
175	0x482ba5e9	175767.64
176	0x48483bb0	205038.75
177	0x483490de	184899.47
178	0x483088c2	180771.03
179	0x4814560a	151896.16
180	0x486d44f9	242963.89
181	0x482c2c70	176305.75
182	0x4839aeb6	190138.84
183	0x482f23c9	179343.14
184	0x482c70a8	176578.62
185	0x487d9114	259652.31
186	0x4890d723	296633.1
187	0x483fc5ff	196375.98
188	0x48186bc9	156079.14
189	0x4863222b	232584.67
190	0x4855211f	218244.48
191	0x48137bb8	151022.88
192	0x481710f1	154691.77
193	0x48163ab3	153834.8
194	0x48177961	155109.52
195	0x4814fbcd	152559.2
196	0x481b3d53	158965.3
197	0x482856b2	172378.78
198	0x482c7709	176604.14
199	0x481510b1	152642.77
200	0x4812fe93	150522.3
201	0x481720fe	154755.97
202	0x4817d356	155469.34
203	0x48186bc9	156079.14
204	0x482fdab0	180074.75
205	0x480fbb38	147180.88
206	0x48152798	152734.38
207	0x48169acc	154219.19
208	0x487fcf32	261948.78
209	0x4847a35c	204429.44
210	0x484fa54e	212629.22
211	0x480583f7	136719.86
212	0x48a93c69	346595.28
213	0x48415a08	197992.12
214	0x4853f80b	217056.17
215	0x48397d8b	189942.17
216	0x484fd19e	212806.47
217	0x48b3eed8	368502.75
218	0x48dca793	451900.6
219	0x4863222b	232584.67
220	0x480fbb38	147180.88
221	0x48be91fb	390287.84
222	0x4890d054	296578.62
223	0x481ce7cd	160671.2
224	0x486e1c14	243824.31
225	0x485711c8	220231.12
226	0x48529d1a	215668.4
227	0x4812016e	149509.72
228	0x4895d580	306860.0
229	0x483cdf49	193405.14
230	0x486af29c	240586.44
231	0x48419aec	198251.69
232	0x4846ebf0	203695.75
233	0x48a86c1a	344928.8
234	0x48c46fc5	402302.16
235	0x4855211f	218244.48
236	0x48152798	152734.38
237	0x4890d054	296578.62
238	0x4889c066	282115.2
239	0x48284175	172293.83
240	0x481d8828	161312.62
241	0x482ed34a	179021.16
242	0x48261405	170064.08
243	0x482905ae	173078.72
244	0x4820cb58	164653.38
245	0x481ecd0e	162612.22
246	0x482679c5	170471.08
247	0x481f9675	163417.83
248	0x48273b73	171245.8
249	0x48307c23	180720.55
250	0x482ba5e9	175767.64
251	0x48137bb8	151022.88
252	0x48169acc	154219.19
253	0x481ce7cd	160671.2
254	0x48284175	172293.83
255	0x48569f66	219773.6
