entk_32shot.pt (torch, 7408 bytes, 1 tensors)

kernel f4 [32, 32]
0	0x4898a425	312609.16
1	0x484560a3	202114.55
2	0x483747f8	187679.88
3	0x481408d3	151587.3
4	0x48861efc	274679.88
5	0x4835bf2d	186108.7
6	0x484d90aa	210498.66
7	0x48434697	199962.36
8	0x481702fb	154635.92
9	0x481d2781	160926.02
10	0x482ac8d5	174883.33
11	0x486266ba	231834.9
12	0x4828dc1e	172912.47
13	0x48231162	166981.53
14	0x48086e19	139704.39
15	0x48238f11	167484.27
16	0x48379653	187993.3
17	0x489552c3	305814.1
18	0x48a72d03	342376.1
19	0x48483bb0	205038.75
20	0x481710f1	154691.77
21	0x487fcf32	261948.78
22	0x486e1c14	243824.31
23	0x481d8828	161312.62
24	0x48683492	237778.28
25	0x481c982d	160352.7
26	0x482630ae	170178.72
27	0x481552b6	152906.84
28	0x4818405f	155905.48
29	0x48239cd2	167539.28
30	0x48682d1d	237748.45
31	0x4881b05b	265602.84
32	0x484560a3	202114.55
33	0x4880a024	263425.12
34	0x485ea3d3	227983.3
35	0x483324ce	183443.22
36	0x48575231	220488.77
37	0x482ed308	179020.12
38	0x4877a98e	253606.22
39	0x483b7f7c	191997.94
40	0x4814ce4a	152377.16
41	0x4824b409	168656.14
42	0x48565e3c	219512.94
43	0x4866d291	236362.27
44	0x481bbfe3	159487.55
45	0x483e0089	194562.14
46	0x481ace57	158521.36
47	0x483a74bb	190930.92
48	0x48240b40	167981.0
49	0x486dd7be	243550.97
50	0x4888c583	280108.1
51	0x483490de	184899.47
52	0x48163ab3	153834.8
53	0x4847a35c	204429.44
54	0x485711c8	220231.12
55	0x482ed34a	179021.16
56	0x48553346	218317.1
57	0x482e431b	178444.42
58	0x48236e08	167352.12
59	0x4819c1c0	157447.0
60	0x48181d5e	155765.47
61	0x482c7bb8	176622.88
62	0x485bcf27	225084.61
63	0x4871786b	247265.67
64	0x483747f8	187679.88
65	0x485ea3d3	227983.3
66	0x4947f0aa	818954.6
67	0x48369aea	186987.66
68	0x48497299	206282.39
69	0x482b469c	175386.44
70	0x4930bced	723918.8
71	0x483c155e	192597.47
72	0x48353b1d	185580.45
73	0x482ee686	179098.1
74	0x4850cd47	213813.11
75	0x48590561	222229.52
76	0x481cb0d9	160451.39
77	0x48379cfb	188019.92
78	0x481dcb5a	161581.4
79	0x482b9e0d	175736.2
80	0x482dd064	177985.56
81	0x48702090	245890.25
82	0x48822880	266564.0
83	0x483088c2	180771.03
84	0x48177961	155109.52
85	0x484fa54e	212629.22
86	0x48529d1a	215668.4
87	0x48261405	170064.08
88	0x48555860	218465.5
89	0x4827cc89	171826.14
90	0x4827ee88	171962.12
91	0x48248abe	168490.97
92	0x48b10079	362499.78
93	0x4835dd96	186230.34
94	0x4842d132	199492.78
95	0x48690c5e	238641.47
96	0x481408d3	151587.3
97	0x483324ce	183443.22
98	0x48369aea	186987.66
99	0x48777079	253377.89
100	0x480d071d	144412.45
101	0x481afb7f	158701.98
102	0x48260516	170004.34
103	0x482cd085	176962.08
104	0x4811f6a9	149466.64
105	0x4823f239	167880.89
106	0x484bcdd8	208695.38
107	0x4839b865	190177.58
108	0x481ecf22	162620.53
109	0x484b3f88	208126.12
110	0x48283c44	172273.06
111	0x48329b8b	182894.17
112	0x4807f53e	139220.97
113	0x480af977	142309.86
114	0x481003dc	147471.44
115	0x4814560a	151896.16
116	0x4814fbcd	152559.2
117	0x480583f7	136719.86
118	0x4812016e	149509.72
119	0x482905ae	173078.72
120	0x480f1b06	146540.1
121	0x482c9573	176725.8
122	0x4823720c	167368.19
123	0x48155d25	152948.58
124	0x481a0f88	157758.12
125	0x481a620e	158088.22
126	0x480c2058	143489.38
127	0x480bef56	143293.34
128	0x48861efc	274679.88
129	0x48575231	220488.77
130	0x48497299	206282.39
131	0x480d071d	144412.45
132	0x48b43791	369084.53
133	0x48498d55	206389.33
134	0x486b5e3e	241016.97
135	0x48472880	203938.0
136	0x48181162	155717.53
137	0x481e6065	162177.58
138	0x4830bacf	180971.23
139	0x4885d102	274056.06
140	0x481492f2	152139.78
141	0x4819a2ef	157323.73
142	0x47f3df34	124862.41
143	0x482504ee	168979.72
144	0x484d911c	210500.44
145	0x48be27bf	389437.97
146	0x48ea83ab	480285.34
147	0x486d44f9	242963.89
148	0x481b3d53	158965.3
149	0x48a93c69	346595.28
150	0x4895d580	306860.0
151	0x4820cb58	164653.38
152	0x4891be55	298482.66
153	0x48209239	164424.89
154	0x4836afdb	187071.42
155	0x481472d8	152011.38
156	0x48186718	156060.38
157	0x4827fb41	172013.02
158	0x488f113e	293001.94
159	0x48aaf43d	350113.9
160	0x4835bf2d	186108.7
161	0x482ed308	179020.12
162	0x482b469c	175386.44
163	0x481afb7f	158701.98
164	0x48498d55	206389.33
165	0x4891b88b	298436.34
166	0x48c2775e	398266.94
167	0x482bfdd5	176119.33
168	0x48158b8b	153134.17
169	0x481eb4a0	162514.5
170	0x48d089b7	427085.72
171	0x48439b8e	200302.22
172	0x48174f87	154942.11
173	0x48225c7c	166257.94
174	0x48134b05	150828.08
175	0x48578892	220706.28
176	0x4825a17f	169605.98
177	0x4861607d	230785.95
178	0x4861b415	231120.33
179	0x482c2c70	176305.75
180	0x482856b2	172378.78
181	0x48415a08	197992.12
182	0x483cdf49	193405.14
183	0x481ecd0e	162612.22
184	0x4838b905	189156.08
185	0x481febf5	163759.83
186	0x48232bf0	167087.75
187	0x48172c0e	154800.22
188	0x4816725e	154057.47
189	0x481e2bd9	161967.39
190	0x483a9a0c	191080.19
191	0x4846f60e	203736.22
192	0x484d90aa	210498.66
193	0x4877a98e	253606.22
194	0x4930bced	723918.8
195	0x48260516	170004.34
196	0x486b5e3e	241016.97
197	0x48c2775e	398266.94
198	0x49993039	1.2549191e+06
199	0x483c30fb	192707.92
200	0x483310c7	183363.11
201	0x48246463	168337.55
202	0x4936e9f5	749215.3
203	0x48672176	236677.84
204	0x481a525b	158025.42
205	0x4821e814	165792.31
206	0x4818bd3c	156404.94
207	0x488fd7d7	294590.72
208	0x48304a0b	180520.17
209	0x488b51d8	285326.75
210	0x4890dea1	296693.03
211	0x4839aeb6	190138.84
212	0x482c7709	176604.14
213	0x4853f80b	217056.17
214	0x486af29c	240586.44
215	0x482679c5	170471.08
216	0x486c8066	242177.6
217	0x4821202c	164992.69
218	0x482310e2	166979.53
219	0x48225b84	166254.06
220	0x48ae1587	356524.22
221	0x483d7a4a	194025.16
222	0x485d2f77	226493.86
223	0x4886a521	275753.03
224	0x48434697	199962.36
225	0x483b7f7c	191997.94
226	0x483c155e	192597.47
227	0x482cd085	176962.08
228	0x48472880	203938.0
229	0x482bfdd5	176119.33
230	0x483c30fb	192707.92
231	0x487232f2	248011.78
232	0x4813c9f1	151335.77
233	0x483861b4	188806.81
234	0x482b268c	175258.19
235	0x484cd5ee	209751.72
236	0x481ec3c9	162575.14
237	0x48299fc4	173695.06
238	0x4817faf7	155627.86
239	0x48248cda	168499.4
240	0x48237128	167364.62
241	0x4861db07	231276.11
242	0x487006c8	245787.12
243	0x482f23c9	179343.14
244	0x481510b1	152642.77
245	0x48397d8b	189942.17
246	0x48419aec	198251.69
247	0x481f9675	163417.83
248	0x4839edd6	190391.34
249	0x482153a9	165198.64
250	0x4821b4fb	165587.92
251	0x481654bc	153938.94
252	0x48179d04	155252.06
253	0x481e206d	161921.7
254	0x484a1645	206937.08
255	0x4844f7e3	201695.55
