entk_16shot.pt (torch, 3440 bytes, 1 tensors)

kernel f4 [16, 16]
0	0x48954d03	305768.1
1	0x48476a4b	204201.17
2	0x48390f8b	189502.17
3	0x4813c14c	151301.19
4	0x4885e99c	274252.88
5	0x48350982	185382.03
6	0x484f3e8b	212218.17
7	0x4842108d	198722.2
8	0x4838dec3	189307.05
9	0x48947d55	304106.66
10	0x48a7aefc	343415.88
11	0x48484102	205060.03
12	0x4816f30c	154572.19
13	0x487f8ec1	261691.02
14	0x486ed89d	244578.45
15	0x481d7486	161234.1
16	0x48476a4b	204201.17
17	0x488341b6	268813.7
18	0x485d6c78	226737.88
19	0x48335ecb	183675.17
20	0x48570f6b	220221.67
21	0x482e6168	178565.62
22	0x487f2600	261272.0
23	0x483b9d25	192116.58
24	0x482492ca	168523.16
25	0x486dfdbb	243702.92
26	0x48896131	281353.53
27	0x4834a1f7	184967.86
28	0x48160bd4	153647.31
29	0x48473db5	204022.83
30	0x48582e8d	221370.2
31	0x482f5e92	179578.28
32	0x48390f8b	189502.17
33	0x485d6c78	226737.88
34	0x49417481	792392.06
35	0x4830365e	180441.47
36	0x484b6cd7	208307.36
37	0x482aa95f	174757.48
38	0x4931442c	726082.75
39	0x483b753e	191956.97
40	0x4825b36a	169677.66
41	0x487131bf	246982.98
42	0x488388eb	269383.34
43	0x48312026	181376.6
44	0x481733c0	154831.0
45	0x483fa406	196240.1
46	0x4854006f	217089.73
47	0x4824ea7e	168873.97
48	0x4813c14c	151301.19
49	0x48335ecb	183675.17
50	0x4830365e	180441.47
51	0x4877a3b4	253582.81
52	0x480ee18e	146310.22
53	0x481b1c95	158834.33
54	0x48293cb5	173298.83
55	0x482bb010	175808.25
56	0x4807a221	138888.52
57	0x480af1fe	142279.97
58	0x480fdad0	147307.25
59	0x48145cc2	151923.03
60	0x48153ab7	152810.86
61	0x4805cbd6	137007.34
62	0x4811a38f	149134.23
63	0x48293277	173257.86
64	0x4885e99c	274252.88
65	0x48570f6b	220221.67
66	0x484b6cd7	208307.36
67	0x480ee18e	146310.22
68	0x48b3db34	368345.62
69	0x4847d011	204608.27
70	0x486a3eea	239867.66
71	0x484741f4	204039.81
72	0x484d3dd0	210167.25
73	0x48bd2d7c	387435.88
74	0x48e9a3a6	478493.2
75	0x486cd30c	242508.19
76	0x481c4589	160022.14
77	0x48a940bd	346629.9
78	0x48956f7c	306043.88
79	0x4820652a	164244.66
80	0x48350982	185382.03
81	0x482e6168	178565.62
82	0x482aa95f	174757.48
83	0x481b1c95	158834.33
84	0x4847d011	204608.27
85	0x48918f59	298106.78
86	0x48c299fb	398543.84
87	0x482bd3ca	175951.16
88	0x4825151a	169044.4
89	0x48606d4a	229813.16
90	0x486066d9	229787.39
91	0x482bdfe8	175999.62
92	0x4827d864	171873.56
93	0x48418ffc	198207.94
94	0x483c1865	192609.58
95	0x481f0066	162817.6
96	0x484f3e8b	212218.17
97	0x487f2600	261272.0
98	0x4931442c	726082.75
99	0x48293cb5	173298.83
100	0x486a3eea	239867.66
101	0x48c299fb	398543.84
102	0x499a5248	1.264201e+06
103	0x483b8221	192008.52
104	0x482f3717	179420.36
105	0x488ad82d	284353.4
106	0x48918a12	298064.56
107	0x48398b22	189996.53
108	0x482de849	178081.14
109	0x485541d7	218375.36
110	0x486bfc46	241649.1
111	0x48282a15	172200.33
112	0x4842108d	198722.2
113	0x483b9d25	192116.58
114	0x483b753e	191956.97
115	0x482bb010	175808.25
116	0x484741f4	204039.81
117	0x482bd3ca	175951.16
118	0x483b8221	192008.52
119	0x486ea4d5	244371.33
120	0x4823f410	167888.25
121	0x4861e67c	231321.94
122	0x4870933a	246348.9
123	0x482f45bc	179478.94
124	0x4814e15d	152453.45
125	0x483a0926	190500.6
126	0x4841daf9	198507.89
127	0x481f4ac4	163115.06
128	0x4838dec3	189307.05
129	0x482492ca	168523.16
130	0x4825b36a	169677.66
131	0x4807a221	138888.52
132	0x484d3dd0	210167.25
133	0x4825151a	169044.4
134	0x482f3717	179420.36
135	0x4823f410	167888.25
136	0x484c2ee8	209083.62
137	0x486cd661	242521.52
138	0x4872239a	247950.4
139	0x482c6b6a	176557.66
140	0x48139d14	151156.31
141	0x484fb84c	212705.19
142	0x4847023a	203784.9
143	0x48273721	171228.52
144	0x48947d55	304106.66
145	0x486dfdbb	243702.92
146	0x487131bf	246982.98
147	0x480af1fe	142279.97
148	0x48bd2d7c	387435.88
149	0x48606d4a	229813.16
150	0x488ad82d	284353.4
151	0x4861e67c	231321.94
152	0x486cd661	242521.52
153	0x48f06377	492315.72
154	0x4905089a	544905.6
155	0x487cf7d9	259039.39
156	0x48177d82	155126.03
157	0x48b381dc	367630.88
158	0x48a7f470	343971.5
159	0x483045b1	180502.77
160	0x48a7aefc	343415.88
161	0x48896131	281353.53
162	0x488388eb	269383.34
163	0x480fdad0	147307.25
164	0x48e9a3a6	478493.2
165	0x486066d9	229787.39
166	0x48918a12	298064.56
167	0x4870933a	246348.9
168	0x4872239a	247950.4
169	0x4905089a	544905.6
170	0x49267d6f	681942.94
171	0x48909cc4	296166.12
172	0x4817d2d6	155467.34
173	0x48dca306	451864.2
174	0x48c46637	402225.72
175	0x482b4ba3	175406.55
176	0x48484102	205060.03
177	0x4834a1f7	184967.86
178	0x48312026	181376.6
179	0x48145cc2	151923.03
180	0x486cd30c	242508.19
181	0x482bdfe8	175999.62
182	0x48398b22	189996.53
183	0x482f45bc	179478.94
184	0x482c6b6a	176557.66
185	0x487cf7d9	259039.39
186	0x48909cc4	296166.12
187	0x483f8bc8	196143.12
188	0x48185e05	156024.08
189	0x4863248e	232594.22
190	0x4854ff36	218108.84
191	0x481330c3	150723.05
192	0x4816f30c	154572.19
193	0x48160bd4	153647.31
194	0x481733c0	154831.0
195	0x48153ab7	152810.86
196	0x481c4589	160022.14
197	0x4827d864	171873.56
198	0x482de849	178081.14
199	0x4814e15d	152453.45
200	0x48139d14	151156.31
201	0x48177d82	155126.03
202	0x4817d2d6	155467.34
203	0x48185e05	156024.08
204	0x482c91b3	176710.8
205	0x48128a24	150056.56
206	0x4815e06e	153473.72
207	0x4816552a	153940.66
208	0x487f8ec1	261691.02
209	0x48473db5	204022.83
210	0x483fa406	196240.1
211	0x4805cbd6	137007.34
212	0x48a940bd	346629.9
213	0x48418ffc	198207.94
214	0x485541d7	218375.36
215	0x483a0926	190500.6
216	0x484fb84c	212705.19
217	0x48b381dc	367630.88
218	0x48dca306	451864.2
219	0x4863248e	232594.22
220	0x48128a24	150056.56
221	0x48bcb208	386448.25
222	0x4890a733	296249.6
223	0x481d1888	160866.12
224	0x486ed89d	244578.45
225	0x48582e8d	221370.2
226	0x4854006f	217089.73
227	0x4811a38f	149134.23
228	0x48956f7c	306043.88
229	0x483c1865	192609.58
230	0x486bfc46	241649.1
231	0x4841daf9	198507.89
232	0x4847023a	203784.9
233	0x48a7f470	343971.5
234	0x48c46637	402225.72
235	0x4854ff36	218108.84
236	0x4815e06e	153473.72
237	0x4890a733	296249.6
238	0x4889ccd7	282214.72
239	0x4827b1ea	171719.66
240	0x481d7486	161234.1
241	0x482f5e92	179578.28
242	0x4824ea7e	168873.97
243	0x48293277	173257.86
244	0x4820652a	164244.66
245	0x481f0066	162817.6
246	0x48282a15	172200.33
247	0x481f4ac4	163115.06
248	0x48273721	171228.52
249	0x483045b1	180502.77
250	0x482b4ba3	175406.55
251	0x481330c3	150723.05
252	0x4816552a	153940.66
253	0x481d1888	160866.12
254	0x4827b1ea	171719.66
255	0x4859182d	222304.7
